NN.pth (torch, 176068 bytes, 8 tensors)

network.0.weight f4 [256, 6]
-0.011193297 0.2502407 0.23787434 -0.030000037 0.018620191 0.0040325075 0.3435423 0.5225808
0.5269567 0.509543 0.03921462 0.481823 0.14226201 -0.022363361 -0.028435823 -0.06605313
0.015053437 -0.098053396 -0.6076793 0.021064105 -0.019918134 -0.037062176 0.40613666 -0.6036979
-0.56707054 0.16958994 0.1748903 0.17268635 -0.22736645 0.07156833 -0.14388262 -0.022295369
-0.0061057033 0.00063679594 0.15282734 0.02665652 0.53895664 0.26219785 0.31439656 0.28899455
0.31810164 0.6265071 -0.085306354 0.5189855 0.53287125 0.44364518 -0.5722984 -0.17881444
0.25007704 -0.24047695 -0.34372735 0.014823288 0.00530639 -0.0042427536 0.69050056 0.23944505
0.30297428 0.32458898 0.18797322 0.17196739 0.7559553 0.03927112 0.10152281 0.06581126
-0.59552264 0.5238793 -0.008994003 -0.0051633175 -0.004218876 0.011407052 0.00052106555 -0.0048875175
0.0009327741 0.0011857908 0.00042579818 0.0029685083 0.0037388485 -0.0019784675 0.006009492 0.010656183
0.00381901 0.0025488979 -0.005319728 0.00055618165 -0.3329164 -0.35877386 -0.35454145 -0.36649644
0.27757448 0.19029756 -0.2812279 0.7291599 0.68456274 0.73121715 -0.07254472 -0.06767622
0.276745 -0.0730357 -0.091821216 -0.06433319 0.62634236 0.17383014 -0.14518085 -0.109018244
-0.12585846 -0.10701349 0.28844795 -0.4142261 -0.60869503 0.07759557 0.0107014505 0.022797415
0.20685673 0.43461883 0.001702333 0.011638906 0.0036628738 1.3654612e-06 -0.0052669295 -0.00021887063
-0.09735333 -0.020704864 -0.09215788 0.14652291 -0.021741584 0.02329256 0.0608831 -0.33959067
0.09855114 0.0027114088 -0.003919475 -0.002266569 -0.5155227 0.63961333 0.6914258 0.6426125
-0.9390244 -0.6398797 0.31713578 0.12354969 0.12766992 0.107304476 -0.1960399 -0.33149055
0.14888161 -0.22134018 0.121162236 -0.006642755 0.0006164049 -0.004102924 0.019222502 0.012746099
0.0049992553 0.0025932833 1.1716629 -0.010794692 -0.14758232 -0.17670773 -0.2898066 -0.4447091
0.04225477 -0.01950473 -0.53314483 -0.011267852 -0.02643959 0.016835688 -0.61050177 -0.60209113
0.26796275 -0.5498809 -0.54763794 -0.55788875 -0.44920698 0.1609676 0.10777091 0.36704415
0.36701688 0.33694497 0.4576384 -0.047106374 0.23736556 0.020587271 -0.032614768 -0.054667547
0.55738056 0.59379566 0.14235124 -0.2246763 -0.17119843 0.2630042 -0.052435633 -0.010357182
-0.19922337 -0.33259687 -0.31186962 -0.34562495 -0.2395829 -0.22552389 0.21915329 0.19740011
0.33060145 0.007755128 0.0032275934 0.0014350109 -0.1595297 0.24716818 0.27861905 0.29505256
-0.063361675 0.23599614 -0.09232827 0.11554915 0.16810519 0.18580423 0.27660543 -0.0007808843
-0.15209481 -0.20309386 -0.22708479 -0.27656052 -0.81885064 -0.5399942 0.47753745 -0.5624406
-0.5450426 -0.57242244 -0.45260903 0.31447724 -0.18629335 -0.16627453 -0.22708158 0.0050403937
-0.004552519 0.003526433 -0.29442632 0.38718036 0.05908902 -0.0068867737 -0.0006840321 0.0014852758
0.5249624 0.07731043 0.07910556 0.043987293 0.5482984 0.5228322 0.34255552 0.39477584
-0.03238607 -0.0046319165 -0.0053912983 -0.010153947 -0.24787425 -0.71163493 -0.63788587 -0.63173896
00000000: 1764 37bc 8d1f 803e 5595 733e a3c2 f5bc
00000010: 5f89 983c 2023 843b c7e4 af3e dbc7 053f
00000020: a2e6 063f 6971 023f 829f 203d 81b1 f63e
00000030: 22ad 113e 5e33 b7bc 3ef2 e8bc dd46 87bd
00000040: b1a2 763c 38d0 c8bd df90 1bbf a18e ac3c
00000050: 5b2b a3bc 82ce 17bd 25f1 cf3e f28b 1abf
00000060: 892b 11bf fca8 2d3e 7116 333e b1d4 303e
00000070: c0d2 68be 6b92 923d f755 13be c7a4 b6bc
00000080: 5a12 c8bb a7ee 263a c57e 1c3e c65e da3c
00000090: 10f9 093f cc3e 863e 96f8 a03e 18f7 933e
000000a0: 38de a23e c562 203f 19b5 aebd 3cdc 043f
000000b0: 406a 083f 7625 e33e 2682 12bf 221b 37be
000000c0: 190a 803e 973f 76be 08fd afbe 60dd 723c
000000d0: 3ae1 ad3b cc06 8bbb a5c4 303f 1531 753e
000000e0: 721f 9b3e 8730 a63e 0d7c 403e 3818 303e
000000f0: 4986 413f c1da 203d 31eb cf3d 0ec8 863d
00000100: 2c74 18bf f41c 063f 955b 13bc 0c31 a9bb
00000110: 7f3e 8abb a5e4 3a3c 1e98 083a 7827 a0bb
00000120: 6985 743a 896c 9b3a aa3d df39 4e8b 423b
00000130: 7807 753b 2da9 01bb 46eb c43b 4597 2e3c
00000140: 5b48 7a3b 690b 273b 1d51 aebb b8cc 113a
00000150: 0574 aabe 35b1 b7be 7586 b5be 6ca5 bbbe
00000160: 3e1e 8e3e 5ddd 423e 1afd 8fbe 39aa 3a3f
00000170: 813f 2f3f 0c31 3b3f 5392 94bd d499 8abd
00000180: 85b1 8d3e be93 95bd c30c bcbd 1fc1 83bd
00000190: f957 203f 8700 323e 4aaa 14be f544 dfbd
000001a0: 0ae1 00be e329 dbbd 73af 933e 7215 d4be
000001b0: 70d3 1bbf 6dea 9e3d 2355 2f3c a5c1 ba3c
000001c0: 40d2 533e 5c86 de3e d120 df3a 1cb1 3e3c
000001d0: d30c 703b e444 b735 3596 acbb a380 65b9
000001e0: 2f61 c7bd 3f9d a9bc 45bd bcbd 1a0a 163e
000001f0: 681b b2bc 0ad0 be3c 8f60 793d d4de adbe
00000200: 2ed5 c93d e4b1 313b f06e 80bb b88a 14bb
00000210: 4cf9 03bf b3bd 233f 4801 313f 4182 243f
00000220: e763 70bf 28cf 23bf 9f5f a23e 9f07 fd3d
00000230: e7bb 023e 73c2 db3d afbe 48be 21b9 a9be
00000240: 6c74 183e 00a7 62be e823 f83d 78ab d9bb
00000250: 3c96 213a d271 86bb 8278 9d3c 04d5 503c
00000260: cbd0 a33b 13f4 293b 0df9 953f 38dc 30bc
00000270: d21f 17be dff2 34be 8861 94be e9b0 e3be
00000280: 5613 2d3d 62c8 9fbc 2e7c 08bf cc9c 38bc
00000290: d797 d8bc ffea 893c d849 1cbf a522 1abf
000002a0: 6a32 893e ffc4 0cbf 0032 0cbf ccd1 0ebf
000002b0: 75fe e5be b1d4 243e ffb6 dc3d 36ed bb3e
000002c0: a3e9 bb3e 0d84 ac3e 954f ea3e 9df2 40bd
000002d0: f50f 733e a3a6 a83c 1097 05bd 14eb 5fbd
000002e0: 7eb0 0e3f fe02 183f 86c4 113e 8b11 66be
000002f0: a44e 2fbe 7da8 863e bfc6 56bd 2bb1 29bc
00000300: 3601 4cbe 234a aabe 60ad 9fbe c1f5 b0be
00000310: 3855 75be bcef 66be b869 603e 4123 4a3e
00000320: 9844 a93e bb1e fe3b 0886 533b fa16 bc3a
00000330: c15b 23be a819 7d3e 28a7 8e3e 2111 973e
00000340: c4c3 81bd f9a8 713e 9b16 bdbd 08a5 ec3d
00000350: c423 2c3e 7743 3e3e 3a9f 8d3e 42b4 4cba
00000360: bebe 1bbe d6f7 4fbe ea88 68be 5799 8dbe
00000370: 32a0 51bf 0f3d 0abf ca7f f43e 1bfc 0fbf
00000380: e987 0bbf 478a 12bf 5fbc e7be 2903 a13e
00000390: afc3 3ebe df43 2abe 1388 68be e329 a53b
000003a0: 4c2d 95bb ba1b 673b 0cbf 96be 813c c63e
000003b0: 5407 723d 72aa e1bb 9e50 33ba 96ad c23a
000003c0: f063 063f ee54 9e3d 1902 a23d 052c 343d
000003d0: 495d 0c3f 55d8 053f 7063 af3e 0f20 ca3e
000003e0: 41a7 04bd 55c7 97bb 7da9 b0bb be5c 26bc
000003f0: bfd2 7dbe b52d 36bf 7d4c 23bf a5b9 21bf

network.0.bias f4 [256]
0.49635428 -0.88899016 0.19525392 -0.82400846 -0.7447948 -0.06361367 -1.191231 -1.3833926
-0.27262902 -0.60399127 -0.79136366 -0.055301536 -0.018177455 -0.044810254 0.14603208 -1.4093446
-0.37188843 -0.32625932 -0.88184756 -0.040259294 -0.1455532 -0.193318 -0.21908958 -0.6588699
0.30680618 -0.8590443 -0.49996728 -0.5793798 -0.5888446 -0.10616385 -1.0566462 -0.4015404
0.6905508 -0.41883302 -0.782193 0.1667586 -1.0000978 -0.22207107 0.23725817 -0.38132656
-0.53842616 -0.41200632 -0.08145804 -0.039702978 -0.8341443 0.0035629408 -0.6236955 -0.68142086
-0.30277482 -0.53078365 -0.1281343 -0.22235522 -0.019430112 -0.57341105 0.12409135 0.13863209
-1.3081245 -0.39582098 -0.039326847 -0.9551773 -0.14317402 -0.88807815 0.016193993 -0.0571862
0.15722567 -0.479004 -0.62697875 -0.58324575 -0.31234342 -0.86624676 -0.058821537 -0.5619012
0.053949807 -1.1628644 -1.2210705 -0.2801294 0.39090672 -0.72634995 -0.14693812 -0.3149826
-0.42415568 -1.0728686 0.2644878 -0.71902174 -0.8163563 -0.47951657 -0.67654634 -0.061821513
-0.14995356 0.040649366 -0.19201991 -0.8954278 -0.33613187 -0.9037745 -0.68748194 -0.5929904
-1.2845446 -0.081204616 -0.12720232 -0.17756979 -0.13015403 -0.24925472 -1.0066328 -1.3194319
-0.39526027 -0.04242183 -0.42867187 -0.8429002 -0.04311743 -0.21925952 -0.014739009 0.0028706035
-0.67147547 -0.15233664 -0.26091745 0.09997234 -1.2281171 -0.5623269 -0.14683686 -0.3507178
0.4968249 -0.069397874 -0.28011653 -0.22505999 -0.49982652 -0.8626329 -0.15630923 -0.039157584
-0.76116717 -0.651896 -0.97466487 -0.033220764 -0.23932745 -0.24158154 -0.9117131 -0.16698834
-0.7553634 -1.0578593 0.2296817 -0.4710217 0.26528704 -0.8271502 -0.4620156 -0.060428727
-0.52007455 -0.9479782 0.15840651 0.5966696 -0.44958216 -0.31099012 -0.13558157 0.09500848
-0.9213494 -0.08642156 -0.8665064 -0.07446279 -0.055726297 0.53348756 -0.5493232 -0.6399119
-1.2071017 -0.22401085 0.055614453 -0.7169312 -0.093340985 -0.04292829 0.1133078 -0.46190497
-0.06482784 0.39401823 -1.3842511 0.08075034 -0.33461115 -0.38967717 0.23667301 0.25011882
-0.95017874 -1.698886 -0.71105164 -0.03385336 -0.3009063 -0.5869517 -0.8720119 -1.4386108
-0.045365665 -0.21782582 -0.7791217 -0.03297622 -0.56577873 -0.88990766 0.18132082 -0.37008488
-0.044017818 -0.52613103 -0.06387813 -0.6982899 -0.639411 -0.5871306 -0.054640584 0.44269285
-0.027862106 -0.73236525 -1.0425159 -0.1896769 -0.79293513 -0.69670546 -0.00861158 0.0019173047
-0.78391176 -0.20253822 0.45486525 -0.019414403 -0.7810306 0.04053394 0.17686455 -0.0040142657
-0.48377734 0.2256623 -0.4657247 -0.009028079 -1.1482707 -0.8349614 -0.53420484 0.91280305
-0.04809623 -0.54068804 -0.4821072 -0.2080939 -0.2046084 -0.37359685 -0.088988855 0.039901543
-1.2113948 0.00115663 -0.9317291 -0.16105309 -0.61536497 -0.800678 -1.1173793 0.15259956
-0.28426656 0.42269754 -0.04325513 -0.035821434 -0.23986901 0.48170146 -0.21304771 -0.7917469
-0.02328586 -0.57937735 -0.39377552 -0.25833985 -0.0727248 -0.13937123 -0.720219 -0.7279797
00000000: 2622 fe3e dc94 63bf a5f0 473e 38f2 52bf
00000010: dfaa 3ebf e247 82bd 427a 98bf 0213 b1bf
00000020: 0896 8bbe 2c9f 1abf cf96 4abf dd83 62bd
00000030: e3e8 94bc f58a 37bd 6f89 153e 6765 b4bf
00000040: 2968 bebe 760b a7be c3c0 61bf eee6 24bd
00000050: e60b 15be 27f5 45be 0559 60be b3ab 28bf
00000060: b315 9d3e 54ea 5bbf b6fb ffbe 3c52 14bf
00000070: 85be 16bf 6f6c d9bd 2f40 87bf b496 cdbe
00000080: f0c7 303f 4871 d6be cd3d 48bf c4c2 2a3e
00000090: 3403 80bf 9966 63be cef3 723e 3c3d c3be
000000a0: 4cd6 09bf 7ef2 d2be 79d3 a6bd 979f 22bd
000000b0: 7b8a 55bf 3a80 693b 82aa 1fbf 9971 2ebf
000000c0: 4d05 9bbe 70e1 07bf a335 03be 16b1 63be
000000d0: e62b 9fbc 11cb 12bf 9b23 fe3d 92f5 0d3e
000000e0: a070 a7bf 0ca9 cabe 3015 21bd 8086 74bf
000000f0: 369c 12be 1759 63bf 44a9 843c 143c 6abd
00000100: c4ff 203e 0340 f5be ae81 20bf 984f 15bf
00000110: 7aeb 9fbe 59c2 5dbf daee 70bd c2d8 0fbf
00000120: 79fa 5c3d bed8 94bf 0a4c 9cbf 1f6d 8fbe
00000130: ed24 c83e 12f2 39bf f276 16be 6645 a1be
00000140: ef2a d9be c253 89bf f26a 873e cf11 38bf
00000150: bafc 50bf 3283 f5be 2432 2dbf 8e38 7dbd
00000160: 6d8d 19be f37f 263d dea0 44be c23a 65bf
00000170: 7a19 acbe c45d 67bf d1fe 2fbf 38ce 17bf
00000180: f56b a4bf 9b4e a6bd 5341 02be dbd4 35be
00000190: 1947 05be a13c 7fbe 58d9 80bf 25e3 a8bf
000001a0: 8e5f cabe 83c2 2dbd e17a dbbe 4fc8 57bf
000001b0: e79b 30bd 9185 60be e27b 71bc bc20 3c3b
000001c0: d1e5 2bbf 23fe 1bbe f996 85be 4cbe cc3d
000001d0: f132 9dbf a8f4 0fbf 675c 16be 4991 b3be
000001e0: d55f fe3e 7920 8ebd 6f6b 8fbe 2076 66be
000001f0: 43e9 ffbe 82d5 5cbf 870f 20be b463 20bd
00000200: dadb 42bf a8e2 26bf a383 79bf 7f12 08bd
00000210: 4112 75be 2761 77be 0866 69bf fefe 2abe
00000220: 7f5f 41bf ef67 87bf ae31 6b3e c229 f1be
00000230: b4d3 873e 1ec0 53bf 4f8d ecbe 1d84 77bd
00000240: 9b23 05bf b3ae 72bf 5135 223e 57bf 183f
00000250: a22f e6be 193a 9fbe e5d5 0abe ce93 c23d
00000260: 8edd 6bbf c9fd b0bd 5dd3 5dbf f27f 98bd
00000270: 4241 64bd a492 083f 72a0 0cbf 44d1 23bf
00000280: 4f82 9abf 1a63 65be fbcb 633d ce88 37bf
00000290: 8f29 bfbd 93d5 2fbd eb0d e83d cf7e ecbe
000002a0: 75c4 84bd c2bc c93e 242f b1bf 6f60 a53d
000002b0: 2752 abbe c483 c7be 695a 723e 930f 803e
000002c0: ea3e 73bf 1975 d9bf 7b07 36bf d2a9 0abd
000002d0: 6410 9abe 7742 16bf 2c3c 5fbf 6624 b8bf
000002e0: 59d1 39bd bb0d 5fbe 8574 47bf 1312 07bd
000002f0: e0d6 10bf fdd0 63bf 2aac 393e c47b bdbe
00000300: 074c 34bd 86b0 06bf 89d2 82bd 20c3 32bf
00000310: 70b0 23bf 314e 16bf cece 5fbd a3a8 e23e
00000320: 123f e4bc 4a7c 3bbf 2971 85bf a93a 42be
00000330: ccfd 4abf 4a5b 32bf 9617 0dbc 124e fb3a
00000340: 71ae 48bf 2e66 4fbe 19e4 e83e f40a 9fbc
00000350: 9ff1 47bf eb06 263d fb1b 353e 1a8a 83bb
00000360: aab1 f7be 0514 673e 7873 eebe 82ea 13bc
00000370: 89fa 92bf 08c0 55bf a6c1 08bf 76ad 693f
00000380: 8d00 45bd 886a 0abf c1d6 f6be 9116 55be
00000390: dd84 51be 1648 bfbe ca3f b6bd cd6f 233d
000003a0: fc0e 9bbf 109a 973a cc85 6ebf 1aeb 24be
000003b0: 8f88 1dbf 3cf9 4cbf 4906 8fbf 0f43 1c3e
000003c0: 638b 91be d06b d83e 4b2c 31bd 7fb9 12bd
000003d0: 39a0 75be 93a1 f63e 2e29 5abe edaf 4abf
000003e0: fdc1 bebc 1352 14bf f29c c9be 1f45 84be
000003f0: bdf0 94bd 55b7 0ebe 4660 38bf e15c 3abf

network.2.weight f4 [128, 256]
-0.039801896 0.8594998 -0.38256723 -0.13934052 -0.01214802 0.18448527 -0.1899131 1.0001081
-0.049158383 -0.38278502 0.19515793 0.06665254 -0.10048256 -0.06067883 0.16908911 0.21618266
0.2965834 -0.08699418 0.08234674 0.04740152 -0.024854317 0.28713143 -0.08624025 0.7828282
-0.14291865 -0.58816266 -0.006381521 0.29877147 -0.8747959 0.33416805 0.16110082 -0.16273546
0.12842742 -0.1981499 0.049754333 -0.0640124 -0.34967527 -0.0026716879 0.28404203 -0.14190114
0.20131639 -0.36922312 -0.34645295 -0.16517371 0.034106463 0.2675718 0.39559317 0.008131163
-0.16331661 0.69695485 0.8038149 -0.17169881 0.12962215 -0.16127354 0.24103135 0.21125439
-0.2562949 0.006027453 0.019297132 -0.2289975 -0.07612743 0.22190651 0.18527773 0.1871827
0.04431683 0.13267137 0.0062566986 0.2922276 -0.104031004 0.04600783 0.06908834 0.14444104
-0.34238967 -0.1817161 0.04504569 0.013766121 -0.22517137 -0.22291571 0.23579055 0.1171216
0.045799013 -0.5460282 0.12582028 0.2116035 0.38916674 -0.22588694 0.8541773 -0.032833617
-0.16331063 0.12237293 -0.24427085 -2.3913746 -0.22691472 -0.056094836 0.15784231 -1.3662565
0.0926788 0.25970438 -0.6525967 0.14186624 -0.095275946 -0.08105669 -1.1386654 -0.36494303
0.16078745 0.13017927 0.054198936 0.16175449 0.052301954 -0.14059745 -0.1815933 -0.11343734
0.04228285 0.053999472 0.0023677836 -0.2104075 0.20000492 0.24852039 -0.16135156 -0.12867485
0.23632449 0.0015476652 -0.4956111 0.3725299 0.15652457 -0.46935466 0.011459497 -0.099998064
-0.39539874 -0.08095707 -0.19677104 -0.039835148 -0.14575613 -0.15875228 -0.29892915 -0.1300631
-0.7527405 0.29044294 -0.3417539 -1.229767 -0.21784323 0.035319474 -0.2707279 0.13729514
0.028992394 0.21842861 0.07598982 -0.04779223 0.19687988 -0.06398455 -0.52854216 0.12317855
0.2750342 -0.13871111 0.34920028 -0.055501305 0.13501719 0.12979981 -0.22817011 0.126452
-0.5912402 0.42278656 0.044195987 -0.107025445 0.2097664 0.04021494 0.060964957 -0.07609323
-0.10228148 0.05728531 0.45390922 0.23268509 0.057875354 -0.047516648 0.27480388 0.2665461
-0.1570679 -0.035662387 0.21363924 0.25131148 0.043794245 -1.3794664 0.08542907 0.45335057
0.18104224 -0.044393346 -2.1875997 0.014393513 -0.015894465 0.011373026 0.056882992 -0.21463533
-0.20844238 -0.07695053 -0.2919064 -0.21148303 -0.06761199 -0.04736813 0.21820775 0.07691052
0.049003992 -1.0071878 0.023525601 0.027783535 0.13101462 -0.2218145 -0.22354351 -0.32178354
0.12693843 -0.20520891 -0.23015693 -0.14632624 0.22375143 0.13586465 0.124533035 0.1728212
-0.036901582 0.09604578 0.64822227 0.045599334 -0.2246588 -0.04904774 0.12402492 0.18291287
0.07700973 -0.15079094 -0.36310768 -0.02645658 1.2654718 -0.04360293 -0.1486596 -0.5243245
0.33524024 -0.296138 -0.014912459 -0.6907416 -0.13660997 -0.3719045 -0.4886184 0.01804994
0.28192976 -0.03780526 0.09102378 0.16924344 0.09836968 -0.0666413 -0.068740256 -0.27476057
0.115114026 -0.050436214 0.06759231 0.00028503808 -0.22298524 0.04843248 0.22441049 -0.28225523
00000000: 5007 23bd 2e08 5c3f dadf c3be 48af 0ebe
00000010: 7d08 47bc b5e9 3c3e 9478 42be 8b03 803f
00000020: 4d5a 49bd 66fc c3be 7bd7 473e 2081 883d
00000030: cdc9 cdbd 5d8a 78bd b225 2d3e fd5e 5d3e
00000040: c8d9 973e 012a b2bd 68a5 a83d 1928 423d
00000050: 489b cbbc e402 933e ba9e b0bd 6e67 483f
00000060: 4459 12be d491 16bf 141c d1bb 93f8 983e
00000070: a0f2 5fbf 1318 ab3e 9df7 243e 20a4 26be
00000080: 7a82 033e cfe7 4abe 33cb 4b3d ef18 83bd
00000090: a308 b3be 7c17 2fbb f56d 913e 884e 11be
000000a0: e225 4e3e d00a bdbe 4862 b1be 4c23 29be
000000b0: 38b3 0b3d 2cff 883e 308b ca3e 9238 053c
000000c0: 783c 27be a26b 323f d0c6 4d3f d0d1 2fbe
000000d0: abbb 043e e424 25be ecd0 763e 1253 583e
000000e0: 1639 83be f181 c53b 0515 9e3c 527e 6abe
000000f0: b3e8 9bbd 763b 633e 72b9 3d3e d2ac 3f3e
00000100: 9085 353d 01db 073e fe04 cd3b db9e 953e
00000110: 350e d5bd b572 3c3d 307e 8d3d 5ae8 133e
00000120: b34d afbe c913 3abe d481 383d 4c8b 613c
00000130: 5393 66be 0444 64be 1473 713e 73dd ef3d
00000140: bf97 3b3d 81c8 0bbf 08d7 003e 97ae 583e
00000150: dd40 c73e e84e 67be 5dab 5a3f 8b7c 06bd
00000160: e73a 27be a99e fa3d 2322 7abe 480c 19c0
00000170: 555c 68be b3c3 65bd 6aa1 213e 7ee1 aebf
00000180: 62ce bd3d f9f7 843e 9410 27bf 6245 113e
00000190: 0920 c3bd 0d01 a6bd cabf 91bf d0d9 babe
000001a0: 77a5 243e b74d 053e b4ff 5d3d f8a2 253e
000001b0: 933a 563d c7f8 0fbe 98f3 39be d651 e8bd
000001c0: c830 2d3d 8d2e 5d3d d12c 1b3b 1075 57be
000001d0: 17ce 4c3e 217c 7e3e 5839 25be 57c3 03be
000001e0: 0cff 713e 07db ca3a bdc0 fdbe 3dbc be3e
000001f0: fa47 203e 414f f0be 9dc0 3b3c c9cb ccbd
00000200: b471 cabe d2cc a5bd 597e 49be 2e2a 23bd
00000210: 1841 15be f58f 22be 3e0d 99be 432f 05be
00000220: 9ab3 40bf f0b4 943e 5efa aebe 0169 9dbf
00000230: 4c12 5fbe 27ab 103d d99c 8abe 1997 0c3e
00000240: 7581 ed3c c0ab 5f3e 8da0 9b3d c9c1 43bd
00000250: e19a 493e 550a 83bd 8a4e 07bf 0945 fc3d
00000260: 48d1 8c3e 490a 0ebe 61ca b23e 5655 63bd
00000270: f241 0a3e 3eea 043e 6da5 69be a27c 013e
00000280: 855b 17bf 7b77 d83e da06 353d 2830 dbbd
00000290: 01cd 563e 6cb8 243d 64b6 793d c4d6 9bbd
000002a0: f478 d1bd 00a4 6a3d ca66 e83e 0045 6e3e
000002b0: b50e 6d3d d1a0 42bd 18b3 8c3e bb78 883e
000002c0: 68d6 20be b912 12bd 3fc4 5a3e e6ab 803e
000002d0: 9861 333d 5b92 b0bf 70f5 ae3d 911d e83e
000002e0: 2363 393e ccd5 35bd a201 0cc0 c5d2 6b3c
000002f0: 1c35 82bc ee55 3a3c 24fe 683d 5dc9 5bbe
00000300: eb71 55be 3d98 9dbd c174 95be 028f 58be
00000310: 2878 8abd 1605 42bd da71 5f3e 4383 9d3d
00000320: 69b8 483d 88eb 80bf c3b8 c03c 4c9a e33c
00000330: b228 063e 5723 63be 97e8 64be d0c0 a4be
00000340: 26fc 013e 4922 52be 42ae 6bbe 8cd6 15be
00000350: 181f 653e 1a20 0b3e 2d0b ff3d 0af8 303e
00000360: 1d26 17bd a6b3 c43d e5f1 253f 5ec6 3a3d
00000370: f50c 66be 48e6 48bd c700 fe3d 834d 3b3e
00000380: 47b7 9d3d f168 1abe 40e9 b9be 78bb d8bc
00000390: fbfa a13f fc98 32bd 393a 18be 213a 06bf
000003a0: 9ca4 ab3e 669f 97be 6353 74bc 71d4 30bf
000003b0: 7ce3 0bbe 446a bebe 312c fabe 78dd 933c
000003c0: 1959 903e b0d9 1abd ad6a ba3d 274e 2d3e
000003d0: 0b76 c93d 3c7b 88bd b1c7 8cbd 6bad 8cbe
000003e0: e7c0 eb3d 3496 4ebd d66d 8a3d 2a71 9539
000003f0: 3e56 64be 2361 463d ddcb 653e c283 90be

network.2.bias f4 [128]
0.108699575 0.35908258 0.39286473 0.010540636 0.25088048 0.12664886 0.14234382 0.08191603
-0.33657876 -0.322282 -0.22899449 0.3152888 -0.23413615 0.21385805 -0.4205094 -0.6910793
0.5235033 -0.030040836 0.45522165 -0.095011875 0.55312586 -0.10055391 0.12581086 0.06625222
0.14322664 -0.29477835 -0.0159545 0.15849683 -0.030954892 -0.088006414 -0.48469326 -0.28706667
0.08049477 0.4031066 0.2823885 -0.0012083206 0.32997724 -0.53563225 0.42969766 -0.043941416
-0.01794094 0.37504283 -0.1957691 0.018036492 0.1154692 0.15014163 -0.19960015 -0.29507974
0.26841855 -0.04997131 0.23334765 -0.3787729 0.1391812 0.23148699 -0.15839432 -0.085008144
-0.035913616 0.008284594 0.2580367 0.44753906 -0.32380906 0.18261217 0.20797159 0.40574896
0.003674537 0.22998594 0.693866 -0.6035839 -0.35446176 0.1179075 0.29725343 -0.3842233
0.27728283 -0.007917175 -0.33498743 -0.30685648 0.30509248 -0.021384027 -0.7776745 0.45244274
-0.059336193 0.1407527 -0.32706484 -0.055377573 -0.14161336 0.18955609 -0.19176193 0.078397326
-0.7333824 0.27831677 0.08454627 0.050059345 0.13134566 -0.30191323 -0.4420941 0.09991593
-0.4691977 -0.3443577 0.12780939 0.026372004 0.065526776 -0.06004788 0.09273902 -0.19937304
-0.02340464 -0.07914077 -0.029328667 -0.110790305 -0.54173565 0.30667946 0.110759445 0.17259903
-0.18552329 -0.10628688 0.2521637 0.09038876 0.2048426 -0.6208607 -0.27159694 0.10210648
-0.16937989 0.06550355 0.4124573 0.40116605 0.41419795 0.34465498 0.32932046 0.79560024
00000000: e29d de3d acd9 b73e 9125 c93e a2b2 2c3c
00000010: 6873 803e 3db0 013e 94c2 113e 97c3 a73d
00000020: 0d54 acbe 2502 a5be 887d 6abe 896d a13e
00000030: 63c1 6fbe 9bfd 5a3e 024d d7be 93ea 30bf
00000040: 5004 063f 3318 f6bc d012 e93e 9695 c2bd
00000050: a899 0d3f 35ef cdbd 90d4 003e 3eaf 873d
00000060: 01aa 123e 30ed 96be 03b3 82bc fe4c 223e
00000070: 1d95 fdbc b53c b4bd b729 f8be 67fa 92be
00000080: 71da a43d fd63 ce3e 3a95 903e 8360 9eba
00000090: c7f2 a83e 321f 09bf 5501 dc3e eafb 33bd
000000a0: e1f8 92bc 9d05 c03e b277 48be 44c1 933c
000000b0: 1e7b ec3d babe 193e fb63 4cbe b114 97be
000000c0: 286e 893e b7ae 4cbd b0f2 6e3e 86ee c1be
000000d0: 8485 0e3e ed0a 6d3e 1f32 22be c018 aebd
000000e0: 281a 13bd 1bbc 073c 631d 843e d723 e53e
000000f0: 4dca a5be affe 3a3e 81f6 543e 54be cf3e
00000100: 80d0 703b 6f81 6b3e 34a1 313f 7984 1abf
00000110: 037c b5be 7d79 f13d 9a31 983e ebb8 c4be
00000120: 04f8 8d3e 0ab7 01bc 7983 abbe 4b1c 9dbe
00000130: 1535 9c3e 8e2d afbc ad15 47bf 93a6 e73e
00000140: 820a 73bd 7a21 103e 0b75 a7be 98d3 62bd
00000150: 1803 11be fe1a 423e 3d5d 44be c78e a03d
00000160: f3be 3bbf 897f 8e3e 9826 ad3d 070b 4d3d
00000170: 7a7f 063e 5f94 9abe 285a e2be b9a0 cc3d
00000180: ae3a f0be a74f b0be 77e0 023e 1a0a d83c
00000190: e732 863d c4f4 75bd f5ed bd3d 7228 4cbe
000001a0: 16bb bfbc 8e14 a2bd ac42 f0bc 07e6 e2bd
000001b0: 30af 0abf 1705 9d3e d9d5 e23d cdbd 303e
000001c0: d1f9 3dbe f0ac d9bd 9a1b 813e be1d b93d
000001d0: 42c2 513e baf0 1ebf c10e 8bbe 341d d13d
000001e0: ec71 2dbe ba26 863d 9a2d d33e a365 cd3e
000001f0: c111 d43e 9e76 b03e b19c a83e 75ac 4b3f

network.4.weight f4 [64, 128]
-0.062102217 -0.024597889 0.008720025 -0.0098169325 0.039246317 -0.0022249243 0.017565971 0.052525796
-0.05598775 0.07772292 0.022742197 -0.01650092 -0.026654596 0.04780629 -1.2433498 -0.01377145
-0.36438006 -0.030216388 0.16186187 -0.028199147 0.02690274 -0.01593705 0.13883553 0.010707708
0.01662911 -0.0047829244 -0.0060445713 -0.022426486 -0.022007713 -0.33366176 0.01730777 -0.032641068
-0.069786005 -0.20256811 0.04911293 0.07472062 0.0084844995 0.19958043 -0.05817309 -0.15770538
0.0045326953 -0.043595713 -1.5035558 0.39926437 -0.007632683 -0.018066369 0.046279997 -0.40544987
0.26704526 0.035111234 0.08376822 -0.011230121 -0.03146872 0.17275114 -0.045781013 0.006018829
0.01635386 0.051465258 -0.027513687 -0.99795026 0.01993137 0.08656664 0.030887637 0.26431257
-0.0064684087 0.017523888 0.016666897 -0.017622814 0.16700312 0.019023294 0.05351001 0.009649723
0.019616356 0.05458638 0.044340037 -0.017003283 -0.05829182 0.08834049 0.025238257 0.035755772
-0.0038825248 0.21522151 -0.018314706 0.16694957 0.41077355 -0.16991372 -0.15170763 -0.007971537
-0.05723798 0.13387595 0.07013392 -0.0064607305 0.8834976 0.03619437 -0.076274805 0.011134989
0.04736883 -0.013258543 -0.067510076 -0.004105567 0.01049742 0.028647533 -0.03738667 -0.065939635
-0.007934731 0.010212244 -0.04765748 0.19342251 -0.0056893183 0.0005972319 0.009192497 -0.08082805
-0.02428476 -0.003575047 0.13928239 -0.20345145 0.08166242 -0.071005054 -0.019564852 -0.03545544
-0.022913335 -0.170445 -0.09561145 0.31646562 0.59609336 -0.070880294 -0.020865137 -0.006507268
0.045587596 -0.053171117 -0.057034727 -0.079932526 -0.071741425 -0.030021958 0.006926194 -0.092197664
-0.06646513 -0.078024335 0.0023026713 -0.05047218 0.009415465 -0.09160126 -0.042659733 -0.057527315
-0.051234353 -0.054389562 -0.018490817 -0.04381914 0.027340664 -0.0789153 -0.03934998 -0.0048629204
0.01566531 -0.0701476 0.034849755 -0.045572072 -0.0060396353 0.03746609 -0.047029875 -0.09201349
-0.13115054 -0.108536914 -0.010743541 0.04384446 -0.020051545 -0.02106502 -0.09518874 -0.07037464
-0.017183395 -0.02154832 0.032168165 0.015451731 -0.023993688 0.038307507 0.013768103 -0.0159004
0.0758868 -0.03832714 0.0026652066 -0.06630272 0.06227787 -0.027443387 0.03613415 -0.03377711
0.035884924 -0.05637831 -0.115219526 0.0068688258 -0.014848698 0.011294757 -0.066709585 -0.07309675
0.035574317 0.008743788 -0.1364753 -0.12359643 -0.049560197 -0.047818318 0.006422859 -0.09454942
0.007047442 -0.085657515 -0.019605229 0.04020143 -0.1410695 -0.043046 -0.011560256 -0.08264741
0.0019461006 0.045210738 -0.045991562 -0.06937711 -0.10228766 -0.14677386 -0.021569155 -0.029466596
-0.07953808 -0.02648588 0.00677154 -0.06405834 -0.070223354 -0.018652773 -0.019642735 -0.11005714
-0.09580831 -0.10893045 0.019366754 -0.107139565 -0.0030887043 0.0072187865 -0.022376975 -0.06565775
0.07696424 -0.008619515 0.026210777 -0.016768716 -0.061068624 -0.11566771 0.005800294 -0.037999954
-0.00028125857 -0.03916445 -0.04979024 -0.0523358 -0.010137349 -0.024030298 -0.061247215 0.037015367
-0.09708859 -0.10768663 -0.060001913 -0.086761326 0.030331817 -0.014950383 -0.08869727 -0.0015380513
00000000: e55e 7ebd 8381 c9bc 70de 0e3c 33d7 20bc
00000010: bfc0 203d 09d0 11bb 83e6 8f3c 4a25 573d
00000020: 6953 65bd 322d 9f3d d84d ba3c f02c 87bc
00000030: bd5a dabc 87d0 433d 1626 9fbf a6a1 61bc
00000040: 0690 babe 5c88 f7bc 1ebf 253e e601 e7bc
00000050: 2363 dc3c 6b8e 82bc e72a 0e3e 626f 2f3c
00000060: c539 883c 14ba 9cbb 8a11 c6bb c0b7 b7bc
00000070: 8549 b4bc b7d5 aabe 06c9 8d3c a4b2 05bd
00000080: f7eb 8ebd 046e 4fbe a42a 493d 2007 993d
00000090: 9202 0b3c d05e 4c3e e846 6ebd 857d 21be
000000a0: 0187 943b 6b91 32bd 8474 c0bf 616c cc3e
000000b0: 961b fabb ecff 93bc 1890 3d3d 2097 cfbe
000000c0: 28ba 883e ccd0 0f3d ac8e ab3d 8bfe 37bc
000000d0: 58e5 00bd ade5 303e df84 3bbd 9939 c53b
000000e0: 88f8 853c 3ccd 523d 6264 e1bc ab79 7fbf
000000f0: 1d47 a33c da49 b13d 1208 fd3c fa53 873e
00000100: f2f4 d3bb 428e 8f3c 0489 883c b85d 90bc
00000110: de02 2b3e bdd6 9b3c 502d 5b3d df19 1e3c
00000120: 7bb2 a03c f895 5f3d e69d 353d 784a 8bbc
00000130: 67c3 6ebd dceb b43d 76c0 ce3c a574 123d
00000140: f571 7ebb 0763 5c3e b908 96bc d4f4 2a3e
00000150: e950 d23e ddfd 2dbe 3f59 1bbe 0d9b 02bc
00000160: 5f72 6abd c716 093e 5fa2 8f3d 89b4 d3bb
00000170: e62c 623f 8c40 143d f735 9cbd 876f 363c
00000180: d105 423d 5c3a 59bc b942 8abd fe87 86bb
00000190: 5ffd 2b3c 3bae ea3c c422 19bd 5c0b 87bd
000001a0: ad00 02bc 4151 273c 7d34 43bd 8d10 463e
000001b0: 766d babb 8e8f 1c3a 209c 163c 2d89 a5bd
000001c0: d5f0 c6bc 564b 6abb 0ba0 0e3e 9455 50be
000001d0: a03e a73d 196b 91bd 7846 a0bc b939 11bd
000001e0: bfb4 bbbc 2289 2ebe f0cf c3bd c807 a23e
000001f0: 9399 183f b029 91bd 5ded aabc ec3a d5bb
00000200: 0fba 3a3d f5c9 59bd 3f9d 69bd aab3 a3bd
00000210: 2bed 92bd 9cf0 f5bc 20f5 e23b 21d2 bcbd
00000220: df1e 88bd 39cb 9fbd 6ae8 163b ebbb 4ebd
00000230: 5343 1a3c 7199 bbbd f9bb 2ebd c3a1 6bbd
00000240: 1ddb 51bd 97c7 5ebd 0e7a 97bc b37b 33bd
00000250: 87f9 df3c 589e a1bd 722d 21bd 2259 9fbb
00000260: 8954 803c 8ba9 8fbd 9ebe 0e3d c8a9 3abd
00000270: 22e8 c5bb 0b76 193d 66a2 40bd 9271 bcbd
00000280: 544c 06be 9a48 debd ad05 30bc 4096 333d
00000290: 2343 a4bc 8c90 acbc 50f2 c2bd 9420 90bd
000002a0: 31c4 8cbc 1a86 b0bc c4c2 033d 4229 7d3c
000002b0: 698e c4bc 55e8 1c3d 9c93 613c 8e41 82bc
000002c0: 8a6a 9b3d ebfc 1cbd bfaa 2e3b b8c9 87bd
000002d0: 1417 7f3d f4d0 e0bc 6701 143d de59 0abd
000002e0: 12fc 123d f1ec 66bd 37f8 ebbd e313 e13b
000002f0: f447 73bc a50d 393c 099f 88bd c0b3 95bd
00000300: 60b6 113d 1b42 0f3c 2ec0 0bbe 2020 fdbd
00000310: a2ff 4abd 24dd 43bd d976 d23b 20a3 c1bd
00000320: 3aee e63b 356d afbd 259b a0bc 41aa 243d
00000330: 8674 10be 0151 30bd 3a67 3dbc 0c43 a9bd
00000340: 4d14 ff3a e52e 393d a661 3cbd 9615 8ebd
00000350: 317c d1bd e34b 16be ccb1 b0bc ee63 f1bc
00000360: dce4 a2bd ebf8 d8bc cbe3 dd3b 0531 83bd
00000370: 43d1 8fbd b3cd 98bc cde9 a0bc a365 e1bd
00000380: 2637 c4bd ee16 dfbd 07a7 9e3c fd6b dbbd
00000390: dc6b 4abb 928b ec3b eb4f b7bc 9277 86bd
000003a0: 6d9f 9d3d de38 0dbc fcb7 d63c 8c5e 89bc
000003b0: 1823 7abd 31e3 ecbd 6510 be3b d7a5 1bbd
000003c0: e375 93b9 e76a 20bd daf0 4bbd 105e 56bd
000003d0: 2017 26bc 30db c4bc 5cde 7abd 6d9d 173d
000003e0: 62d6 c6bd cf8a dcbd 91c4 75bd ecaf b1bd
000003f0: 6e7a f83c 74f2 74bc eaa6 b5bd 7098 c9ba

network.4.bias f4 [64]
0.10490937 0.012053749 0.1872342 -0.08199373 0.02286086 -0.27300036 -0.105400965 0.24417295
0.18104005 -0.08632953 0.10754124 0.009112029 -0.091848925 -0.060229752 -0.062207725 -0.19224505
0.1538285 0.17909029 0.012277809 0.18738596 0.015618317 -0.49712595 0.35717106 0.15085012
0.19712883 -0.15321502 0.37833914 -0.6114884 -0.058054335 -0.17767532 0.20168042 0.25483936
-0.27211478 0.2574173 0.5493352 0.14275527 -0.06216085 0.6129993 0.1619061 0.008666084
0.023102019 -0.044064946 0.3932031 0.080004536 0.16128829 -0.007847829 -0.09630394 -0.1542419
0.010158173 0.19971825 0.38647717 0.31983942 -0.124428436 -0.337958 0.29852343 0.19027983
0.041470468 -0.5025602 0.23991093 0.33916914 -0.25954267 0.02431776 0.14375 -0.18071923
00000000: b9da d63d 167d 453c 52ba 3f3e 54ec a7bd
00000010: b346 bb3c b4c6 8bbe 76dc d7bd 7908 7a3e
00000020: 9062 393e 89cd b0bd 953e dc3d 9f4a 153c
00000030: 4a1b bcbd 79b3 76bd 87cd 7ebd e3db 44be
00000040: 3885 1d3e 7263 373e dd28 493c 1be2 3f3e
00000050: f8e3 7f3c 4b87 febe 20df b63e 7478 1a3e
00000060: 24dc 493e 66e4 1cbe abb5 c13e 818a 1cbf
00000070: 62ca 6dbd 85f0 35be 5085 4e3e 4e7a 823e
00000080: a152 8bbe 33cc 833e 3ba1 0c3f 702e 123e
00000090: 609c 7ebd 86ed 1c3f b6ca 253e 31fc 0d3c
000000a0: 7240 bd3c 727d 34bd eb51 c93e 6bd9 a33d
000000b0: c228 253e 2e94 00bc 003b c5bd 97f1 1dbe
000000c0: 776e 263c f182 4c3e 56e0 c53e fec1 a33e
000000d0: 56d4 febd d508 adbe 10d8 983e b7d8 423e
000000e0: f0dc 293d c9a7 00bf 36ab 753e 94a7 ad3e
000000f0: c7e2 84be 0a36 c73c 3333 133e 760e 39be

network.6.weight f4 [6, 64]
0.06388625 -0.07962554 -0.00931777 -0.010235736 0.0037594477 -0.004619101 -0.1632989 -0.0106645785
-0.026569493 -0.15319838 -0.032714095 0.057505228 -0.006098165 -0.21779187 0.011880575 0.21209422
0.19363815 0.013566834 0.10114793 -0.0022753426 0.13561913 -0.0014762454 0.002933906 0.005018847
-0.0036973883 0.12429653 -0.018555589 0.012421159 0.01263676 0.040500656 0.00039584466 0.0125050815
0.12776414 0.0031279293 -0.0044941646 -0.0358386 0.0017405535 0.0036097225 0.0069803568 0.00393657
-0.16287246 -0.0021790003 0.0039611063 0.23103672 -0.011889373 0.012466122 -0.15110502 0.038175482
-0.0027954902 0.013492963 -0.101748645 0.12275808 -0.0029923532 -0.23724684 -0.00892045 -0.06890594
-0.0099413255 -0.0062790248 -0.007395963 -0.0009168623 0.34486225 -0.10649246 0.14292726 0.108377725
-0.026500588 -0.007102183 -0.0037649737 0.011484563 0.014646075 0.16174504 -0.23715645 -0.012598163
-0.053380214 0.008892237 0.070163615 -0.04754221 -5.6641053e-05 0.1373808 -0.004020713 -0.08182012
-0.01889198 0.0021651897 -0.061542336 -0.009778702 0.10679783 -0.013564961 0.004114463 -0.003836447
-0.0060130875 0.27598816 0.019860908 0.006440825 0.007912944 -0.11094318 0.0022644352 -0.002032088
0.03614327 -0.0035445995 -0.007664578 0.07440204 -0.009349062 0.0028102626 -0.0061590434 0.0019496237
-0.111195184 -0.01055023 -0.0036977644 -0.06651414 -0.0019883066 0.0051820586 -0.14284073 -0.04674219
0.008321354 0.0074019507 -0.27637282 -0.1495985 0.0733509 0.06473026 0.0013455172 -0.0163334
0.0013589965 0.0051483554 -0.0023478675 -0.004658526 0.00068347546 0.2011306 0.16325517 0.106941864
-0.35614547 -0.0025708722 0.0140125165 -0.0014693182 -0.0067924173 -0.017941868 0.031308416 0.007010764
0.14087415 0.010726837 -0.09549334 0.0007182132 -0.0075964034 -0.02519311 0.004688672 0.006186507
0.02185305 -0.018180173 -0.088186696 -0.0026177333 0.053023335 -0.00040688863 0.018077178 0.00047262476
0.0054383827 -0.022305725 0.0042431895 0.009951608 -0.0070975446 -0.2461146 0.0025842374 0.016918918
-0.18189737 0.017840536 0.0012495717 0.286218 -0.006800473 0.0010356765 0.0062189945 -0.005194412
-0.0030214158 0.012329042 -0.004538398 0.015885387 0.0033921096 -0.0055759507 0.015307573 0.04645008
-0.0030747114 0.00245315 -0.00974368 -0.008763835 0.010245155 -0.044219323 0.00086265156 -0.029725993
-0.004343388 0.001623874 -0.013254229 0.008330261 0.0039385012 -0.0002654813 0.01524398 0.0077516637
-0.0003301857 -0.054507606 -0.058725417 -0.7431021 -0.27013084 0.00024058981 0.0043473137 -0.10082235
0.00029398059 -0.028029233 -0.06903155 0.03240499 0.15105286 -0.00856257 0.12791066 0.009011107
-0.006063387 -0.71788716 0.04682812 0.86913836 0.03036677 0.041716218 0.04750199 -0.15680619
-0.0693199 0.00088055455 -0.1897613 -0.40405363 -0.10410634 -0.0024777807 -0.45416582 -0.012528999
-0.0043970444 0.009544504 -0.12853658 -0.03926247 0.9146177 -0.15733753 0.1585705 -0.13868019
-0.001546943 0.024625001 -0.10443014 -0.004353344 -0.109932505 0.0037059116 0.0078058224 -0.03320571
0.3056434 -0.110344216 -0.008483731 0.03559027 0.009318941 0.011531288 0.03879988 0.04862562
-0.058745872 -0.08357486 -0.2504238 0.19392163 -0.010493321 0.027676841 0.01833128 -0.011865591
00000000: cbd6 823d b712 a3bd 8fa9 18bc cab3 27bc
00000010: 1161 763b d45b 97bb d437 27be 7cba 2ebc
00000020: 44a8 d9bc 09e0 1cbe 37ff 05bd 9a8a 6b3d
00000030: 1ed3 c7bb d504 5fbe bea6 423c 3a2f 593e
00000040: 1449 463e 6d47 5e3c a526 cf3d ea1d 15bb
00000050: bedf 0a3e 937e c1ba c646 403b 2475 a43b
00000060: e24f 72bb 2e8f fe3d e401 98bc 1e82 4b3c
00000070: 6a0a 4f3c 04e4 253d 5f89 cf39 1de2 4c3c
00000080: 9ad4 023e f2fd 4c3b c943 93bb 7fcb 12bd
00000090: 4923 e43a 1891 6c3b 7abb e43b 58fe 803b
000000a0: 0ac8 26be 8fcd 0ebb 2bcc 813b e494 6c3e
000000b0: a5cb 42bc b53e 4c3c 46bb 1abe e55d 1c3d
000000c0: 8b34 37bb 9711 5d3c 9861 d0bd 9768 fb3d
000000d0: 5b1b 44bb d6f0 72be 1427 12bc 8f1e 8dbd
000000e0: f1e0 22bc 47c0 cdbb d659 f2bb 9659 70ba
000000f0: c991 b03e b818 dabd 865b 123e 24f5 dd3d
00000100: c317 d9bc 6eb9 e8bb c7bd 76bb c029 3c3c
00000110: 17f6 6f3c 7ea0 253e 24d9 72be 8768 4ebc
00000120: 36a5 5abd bfb0 113c f1b1 8f3d 9fbb 42bd
00000130: de91 6db8 8dad 0c3e 2fc0 83bb 4f91 a7bd
00000140: 5bc3 9abc dbe5 0d3b d113 7cbd d936 20bc
00000150: d2b8 da3d 923f 5ebc 9ed2 863b e66c 7bbb
00000160: 6f09 c5bb 524e 8d3e 58b3 a23c 8e0d d33b
00000170: 4ba5 013c 2e36 e3bd eb66 143b c82c 05bb
00000180: f70a 143d 834c 68bb 2427 fbbb 1960 983d
00000190: cf2c 19bc 622c 383b cdd1 c9bb 848a ff3a
000001a0: 4dba e3bd dfda 2cbc 3156 72bb 9138 88bd
000001b0: 404e 02bb 42ce a93b d744 12be bd74 3fbd
000001c0: 4a56 083c 108c f23b bd80 8dbe 5930 19be
000001d0: ff38 963d 4c91 843d 115c b03a 9fcd 85bc
000001e0: 5b20 b23a 89b3 a83b aede 19bb 8ca6 98bb
000001f0: 432b 333a 2ef5 4d3e 5d2c 273e 5604 db3d
00000200: b358 b6be 147c 28bb c194 653c 2396 c0ba
00000210: ed92 debb d3fa 92bc 413d 003d 8dba e53b
00000220: 5041 103e 9ebf 2f3c 0392 c3bd 7946 3c3a
00000230: 40eb f8bb c861 cebc 6ea3 993b 2fb8 ca3b
00000240: 2b05 b33c 96ee 94bc 3a9b b4bd 478e 2bbb
00000250: ff2e 593d ab53 d5b9 9716 943c 9fca f739
00000260: 7634 b23b 7fba b6bc 740a 8b3b 120c 233c
00000270: 8592 e8bb 7705 7cbe 4f5c 293b 8b99 8a3c
00000280: 4e43 3abe 5126 923c abc8 a33a 2a8b 923e
00000290: 81d6 debb 89bf 873a b5c8 cb3b e335 aabb
000002a0: f202 46bb c0ff 493c d7b6 94bb 1222 823c
000002b0: 284e 5e3b 77b6 b6bb 9dcc 7a3c 7042 3e3d
000002c0: 1981 49bb 07c5 203b f5a3 1fbc 3096 0fbc
000002d0: 4bdb 273c 521f 35bd 9123 623a ed83 f3bc
000002e0: fb52 8ebb 2bd8 d43a 4428 59bc a67b 083c
000002f0: 8b0e 813b 4c30 8bb9 e3c1 793c ab01 fe3b
00000300: c61c adb9 5e43 5fbd 108a 70bd f03b 3ebf
00000310: 974e 8abe d646 7c39 e973 8e3b f37b cebd
00000320: 6821 9a39 909d e5bc 6a60 8dbd 18bb 043d
00000330: 9aad 1a3e 064a 0cbc 03fb 023e 52a3 133c
00000340: 60af c6bb 74c7 37bf d8ce 3f3d da7f 5e3f
00000350: bcc3 f83c a0de 2a3d 7291 423d cd91 20be
00000360: 97f7 8dbd 04d5 663a c950 42be 1ee0 cebe
00000370: b435 d5bd 4362 22bb 6c88 e8be 6e46 4dbc
00000380: 1515 90bb 8d60 1c3c 189f 03be afd1 20bd
00000390: 6324 6a3f 171d 21be 4e60 223e 2e02 0ebe
000003a0: cbc2 caba 5fba c93c 78df d5bd 7fa6 8ebb
000003b0: 4b24 e1bd e1de 723b fcc7 ff3b b602 08bd
000003c0: 4b7d 9c3e 26fc e1bd 59ff 0abc 1ac7 113d
000003d0: 79ae 183c baed 3c3c 9fec 1e3d a82b 473d
000003e0: 839f 70bd 4c29 abbd 8c37 80be 6493 463e
000003f0: 2eec 2bbc 8bba e23c 7b2b 963c e567 42bc

network.6.bias f4 [6]
-0.037440732 -0.05196084 -0.16129375 -0.01237514 0.17151435 -0.15841307
00000000: 745b 19bd e4d4 54bd 302a 25be 19c1 4abc
00000010: 75a1 2f3e 0937 22be
